…
    "model.add(keras.layers.Dense(512,activation=\"relu\"))\n",
    "model.add(keras.layers.Dense(1,activation=\"sigmoid\"))"
   ]
  },
  {
   "cell_type": "code",
   "execution_count": 11,
   "id": "8c70e1c5",
   "metadata": {},
   "outputs": [
    {
     "name": "stdout",
     "output_type": "stream",
     "text": [
      "Model: \"sequential_1\"\n",
      "_________________________________________________________________\n",
      "Layer (type)                 Output Shape              Param #   \n",
      "=================================================================\n",
      "conv2d (Conv2D)              (None, 158, 158, 32)      896       \n",
      "_________________________________________________________________\n",
      "max_pooling2d (MaxPooling2D) (None, 79, 79, 32)        0         \n",
      "_________________________________________________________________\n",
      "conv2d_1 (Conv2D)            (None, 77, 77, 64)        18496     \n",
      "_________________________________________________________________\n",
      "max_pooling2d_1 (MaxPooling2 (None, 38, 38, 64)        0         \n",
      "_________________________________________________________________\n",
      "conv2d_2 (Conv2D)            (None, 36, 36, 128)       73856     \n",
      "_________________________________________________________________\n",
      "max_pooling2d_2 (MaxPooling2 (None, 18, 18, 128)       0         \n",
      "_________________________________________________________________\n",
      "conv2d_3 (Conv2D)            (None, 16, 16, 128)       147584    \n",
      "_________________________________________________________________\n",
      "max_pooling2d_3 (MaxPooling2 (None, 8, 8, 128)         0         \n",
      "_________________________________________________________________\n",
      "flatten (Flatten)            (None, 8192)              0         \n",
      "_________________________________________________________________\n",
      "dense (Dense)                (None, 512)               4194816   \n",
      "_________________________________________________________________\n",
      "dense_1 (Dense)              (None, 1)                 513       \n",
      "=================================================================\n",
      "Total params: 4,436,161\n",
      "Trainable params: 4,436,161\n",
      "Non-trainable params: 0\n",
      "_________________________________________________________________\n"
     ]
    }
   ],
   "source": [
    "model.summary()"
   ]
  },
  {
   "cell_type": "code",
   "execution_count": 12,
   "id": "cf7f440c",
…
